…
I0312 17:49:51.942288 68457 upgrade_proto.cpp:69] Attempting to upgrade input file specified using deprecated input fields: /app/huang/mtcnn-DU/model/det1.prototxt
I0312 17:49:51.942312 68457 upgrade_proto.cpp:72] Successfully upgraded file specified using deprecated input fields.
W0312 17:49:51.942320 68457 upgrade_proto.cpp:74] Note that future Caffe releases will only support input layers and not input fields.
I0312 17:49:51.942438 68457 net.cpp:51] Initializing net from parameters: 
name: "PNet"
state {
  phase: TEST
  level: 0
}
layer {
  name: "input"
  type: "Input"
  top: "data"
  input_param {
    shape {
      dim: 1
      dim: 3
      dim: 12
      dim: 12
    }
  }
}
layer {
  name: "conv1"
  type: "Convolution"
  bottom: "data"
  top: "conv1"
  param {
    lr_mult: 1
    decay_mult: 1
  }
  param {
    lr_mult: 2
    decay_mult: 0
  }
  convolution_param {
    num_output: 10
    kernel_size: 3
    stride: 1
    weight_filler {
      type: "xavier"
    }
    bias_filler {
      type: "constant"
      value: 0
    }
  }
}
layer {
  name: "PReLU1"
  type: "PReLU"
  bottom: "conv1"
  top: "conv1"
}
layer {
  name: "pool1"
  type: "Pooling"
  bottom: "conv1"
  top: "pool1"
  pooling_param {
    pool: MAX
    kernel_size: 2
    stride: 2
  }
}
layer {
  name: "conv2"
  type: "Convolution"
  bottom: "pool1"
  top: "conv2"
  param {
    lr_mult: 1
    decay_mult: 1
  }
  param {
    lr_mult: 2
    decay_mult: 0
  }
  convolution_param {
    num_output: 16
    kernel_size: 3
    stride: 1
    weight_filler {
      type: "xavier"
    }
    bias_filler {
      type: "constant"
      value: 0
    }
  }
}
layer {
  name: "PReLU2"
  type: "PReLU"
  bottom: "conv2"
  top: "conv2"
}
layer {
  name: "conv3"
  type: "Convolution"
  bottom: "conv2"
  top: "conv3"
  param {
    lr_mult: 1
    decay_mult: 1
  }
  param {
    lr_mult: 2
    decay_mult: 0
  }
  convolution_param {
    num_output: 32
    kernel_size: 3
    stride: 1
    weight_filler {
      type: "xavier"
    }
    bias_filler {
      type: "constant"
      value: 0
    }
  }
}
layer {
  name: "PReLU3"
  type: "PReLU"
  bottom: "conv3"
  top: "conv3"
}
layer {
  name: "conv4-1"
  type: "Convolution"
  bottom: "conv3"
  top: "conv4-1"
  param {
    lr_mult: 1
    decay_mult: 1
  }
  param {
    lr_mult: 2
    decay_mult: 0
  }
  convolution_param {
    num_output: 2
    kernel_size: 1
    stride: 1
    weight_filler {
      type: "xavier"
    }
    bias_filler {
      type: "constant"
      value: 0
    }
  }
}
layer {
  name: "conv4-2"
  type: "Convolution"
  bottom: "conv3"
  top: "conv4-2"
  param {
    lr_mult: 1
    decay_mult: 1
  }
  param {
    lr_mult: 2
    decay_mult: 0
  }
  convolution_param {
    num_output: 4
    kernel_size: 1
    stride: 1
    weight_filler {
      type: "xavier"
    }
    bias_filler {
      type: "constant"
      value: 0
    }
  }
}
layer {
  name: "prob1"
  type: "Softmax"
  bottom: "conv4-1"
  top: "prob1"
}
I0312 17:49:51.942492 68457 layer_factory.hpp:77] Creating layer input
I0312 17:49:51.942510 68457 net.cpp:84] Creating Layer input
I0312 17:49:51.942519 68457 net.cpp:380] input -> data
I0312 17:49:51.942548 68457 net.cpp:122] Setting up input
I0312 17:49:51.942560 68457 net.cpp:129] Top shape: 1 3 12 12 (432)
I0312 17:49:51.942569 68457 net.cpp:137] Memory required for data: 1728
I0312 17:49:51.942579 68457 layer_factory.hpp:77] Creating layer conv1
I0312 17:49:51.942596 68457 net.cpp:84] Creating Layer conv1
I0312 17:49:51.942605 68457 net.cpp:406] conv1 <- data
I0312 17:49:51.942615 68457 net.cpp:380] conv1 -> conv1
I0312 17:49:52.490167 68457 net.cpp:122] Setting up conv1
I0312 17:49:52.490203 68457 net.cpp:129] Top shape: 1 10 10 10 (1000)
I0312 17:49:52.490218 68457 net.cpp:137] Memory required for data: 5728
I0312 17:49:52.490239 68457 layer_factory.hpp:77] Creating layer PReLU1
I0312 17:49:52.490253 68457 net.cpp:84] Creating Layer PReLU1
I0312 17:49:52.490260 68457 net.cpp:406] PReLU1 <- conv1
I0312 17:49:52.490268 68457 net.cpp:367] PReLU1 -> conv1 (in-place)
I0312 17:49:52.490291 68457 net.cpp:122] Setting up PReLU1
I0312 17:49:52.490298 68457 net.cpp:129] Top shape: 1 10 10 10 (1000)
I0312 17:49:52.490304 68457 net.cpp:137] Memory required for data: 9728
I0312 17:49:52.490312 68457 layer_factory.hpp:77] Creating layer pool1
I0312 17:49:52.490320 68457 net.cpp:84] Creating Layer pool1
I0312 17:49:52.490326 68457 net.cpp:406] pool1 <- conv1
I0312 17:49:52.490334 68457 net.cpp:380] pool1 -> pool1
I0312 17:49:52.490345 68457 net.cpp:122] Setting up pool1
I0312 17:49:52.490352 68457 net.cpp:129] Top shape: 1 10 5 5 (250)
I0312 17:49:52.490357 68457 net.cpp:137] Memory required for data: 10728
I0312 17:49:52.490363 68457 layer_factory.hpp:77] Creating layer conv2
I0312 17:49:52.490375 68457 net.cpp:84] Creating Layer conv2
I0312 17:49:52.490381 68457 net.cpp:406] conv2 <- pool1
I0312 17:49:52.490388 68457 net.cpp:380] conv2 -> conv2
I0312 17:49:52.491082 68457 net.cpp:122] Setting up conv2
I0312 17:49:52.491099 68457 net.cpp:129] Top shape: 1 16 3 3 (144)
I0312 17:49:52.491106 68457 net.cpp:137] Memory required for data: 11304
I0312 17:49:52.491117 68457 layer_factory.hpp:77] Creating layer PReLU2
I0312 17:49:52.491127 68457 net.cpp:84] Creating Layer PReLU2
I0312 17:49:52.491132 68457 net.cpp:406] PReLU2 <- conv2
I0312 17:49:52.491139 68457 net.cpp:367] PReLU2 -> conv2 (in-place)
I0312 17:49:52.491153 68457 net.cpp:122] Setting up PReLU2
I0312 17:49:52.491160 68457 net.cpp:129] Top shape: 1 16 3 3 (144)
I0312 17:49:52.491166 68457 net.cpp:137] Memory required for data: 11880
I0312 17:49:52.491173 68457 layer_factory.hpp:77] Creating layer conv3
I0312 17:49:52.491183 68457 net.cpp:84] Creating Layer conv3
I0312 17:49:52.491189 68457 net.cpp:406] conv3 <- conv2
I0312 17:49:52.491196 68457 net.cpp:380] conv3 -> conv3
I0312 17:49:52.491833 68457 net.cpp:122] Setting up conv3
I0312 17:49:52.491847 68457 net.cpp:129] Top shape: 1 32 1 1 (32)
I0312 17:49:52.491854 68457 net.cpp:137] Memory required for data: 12008
I0312 17:49:52.491863 68457 layer_factory.hpp:77] Creating layer PReLU3
I0312 17:49:52.491899 68457 net.cpp:84] Creating Layer PReLU3
I0312 17:49:52.491904 68457 net.cpp:406] PReLU3 <- conv3
I0312 17:49:52.491911 68457 net.cpp:367] PReLU3 -> conv3 (in-place)
I0312 17:49:52.491924 68457 net.cpp:122] Setting up PReLU3
I0312 17:49:52.491930 68457 net.cpp:129] Top shape: 1 32 1 1 (32)
I0312 17:49:52.491936 68457 net.cpp:137] Memory required for data: 12136
I0312 17:49:52.491945 68457 layer_factory.hpp:77] Creating layer conv3_PReLU3_0_split
I0312 17:49:52.491955 68457 net.cpp:84] Creating Layer conv3_PReLU3_0_split
I0312 17:49:52.491961 68457 net.cpp:406] conv3_PReLU3_0_split <- conv3
I0312 17:49:52.491968 68457 net.cpp:380] conv3_PReLU3_0_split -> conv3_PReLU3_0_split_0
I0312 17:49:52.491976 68457 net.cpp:380] conv3_PReLU3_0_split -> conv3_PReLU3_0_split_1
I0312 17:49:52.491986 68457 net.cpp:122] Setting up conv3_PReLU3_0_split
I0312 17:49:52.491993 68457 net.cpp:129] Top shape: 1 32 1 1 (32)
I0312 17:49:52.491999 68457 net.cpp:129] Top shape: 1 32 1 1 (32)
I0312 17:49:52.492005 68457 net.cpp:137] Memory required for data: 12392
I0312 17:49:52.492012 68457 layer_factory.hpp:77] Creating layer conv4-1
I0312 17:49:52.492022 68457 net.cpp:84] Creating Layer conv4-1
I0312 17:49:52.492027 68457 net.cpp:406] conv4-1 <- conv3_PReLU3_0_split_0
I0312 17:49:52.492034 68457 net.cpp:380] conv4-1 -> conv4-1
I0312 17:49:52.492899 68457 net.cpp:122] Setting up conv4-1
I0312 17:49:52.492913 68457 net.cpp:129] Top shape: 1 2 1 1 (2)
I0312 17:49:52.492919 68457 net.cpp:137] Memory required for data: 12400
I0312 17:49:52.492928 68457 layer_factory.hpp:77] Creating layer conv4-2
I0312 17:49:52.492940 68457 net.cpp:84] Creating Layer conv4-2
I0312 17:49:52.492946 68457 net.cpp:406] conv4-2 <- conv3_PReLU3_0_split_1
I0312 17:49:52.492959 68457 net.cpp:380] conv4-2 -> conv4-2
I0312 17:49:52.493595 68457 net.cpp:122] Setting up conv4-2
I0312 17:49:52.493609 68457 net.cpp:129] Top shape: 1 4 1 1 (4)
I0312 17:49:52.493616 68457 net.cpp:137] Memory required for data: 12416
I0312 17:49:52.493625 68457 layer_factory.hpp:77] Creating layer prob1
I0312 17:49:52.493634 68457 net.cpp:84] Creating Layer prob1
I0312 17:49:52.493640 68457 net.cpp:406] prob1 <- conv4-1
I0312 17:49:52.493649 68457 net.cpp:380] prob1 -> prob1
I0312 17:49:52.493768 68457 net.cpp:122] Setting up prob1
I0312 17:49:52.493777 68457 net.cpp:129] Top shape: 1 2 1 1 (2)
I0312 17:49:52.493782 68457 net.cpp:137] Memory required for data: 12424
I0312 17:49:52.493788 68457 net.cpp:200] prob1 does not need backward computation.
I0312 17:49:52.493794 68457 net.cpp:200] conv4-2 does not need backward computation.
I0312 17:49:52.493800 68457 net.cpp:200] conv4-1 does not need backward computation.
I0312 17:49:52.493808 68457 net.cpp:200] conv3_PReLU3_0_split does not need backward computation.
…
I0312 17:49:52.494948 68457 upgrade_proto.cpp:69] Attempting to upgrade input file specified using deprecated input fields: /app/huang/mtcnn-DU/model/det2.prototxt
I0312 17:49:52.494958 68457 upgrade_proto.cpp:72] Successfully upgraded file specified using deprecated input fields.
W0312 17:49:52.494964 68457 upgrade_proto.cpp:74] Note that future Caffe releases will only support input layers and not input fields.
I0312 17:49:52.495061 68457 net.cpp:51] Initializing net from parameters: 
name: "RNet"
state {
  phase: TEST
  level: 0
}
layer {
  name: "input"
  type: "Input"
  top: "data"
  input_param {
    shape {
      dim: 1
      dim: 3
      dim: 24
      dim: 24
    }
  }
}
layer {
  name: "conv1"
  type: "Convolution"
  bottom: "data"
  top: "conv1"
  param {
    lr_mult: 0
    decay_mult: 0
  }
  param {
    lr_mult: 0
    decay_mult: 0
  }
  convolution_param {
    num_output: 28
    kernel_size: 3
    stride: 1
    weight_filler {
      type: "xavier"
    }
    bias_filler {
      type: "constant"
      value: 0
    }
  }
}
layer {
  name: "prelu1"
  type: "PReLU"
  bottom: "conv1"
  top: "conv1"
  propagate_down: true
}
layer {
  name: "pool1"
  type: "Pooling"
  bottom: "conv1"
  top: "pool1"
  pooling_param {
    pool: MAX
    kernel_size: 3
    stride: 2
  }
}
layer {
  name: "conv2"
  type: "Convolution"
  bottom: "pool1"
  top: "conv2"
  param {
    lr_mult: 0
    decay_mult: 0
  }
  param {
    lr_mult: 0
    decay_mult: 0
  }
  convolution_param {
    num_output: 48
    kernel_size: 3
    stride: 1
    weight_filler {
      type: "xavier"
    }
    bias_filler {
      type: "constant"
      value: 0
    }
  }
}
layer {
  name: "prelu2"
  type: "PReLU"
  bottom: "conv2"
  top: "conv2"
  propagate_down: true
}
layer {
  name: "pool2"
  type: "Pooling"
  bottom: "conv2"
  top: "pool2"
  pooling_param {
    pool: MAX
    kernel_size: 3
    stride: 2
  }
}
layer {
  name: "conv3"
  type: "Convolution"
  bottom: "pool2"
  top: "conv3"
  param {
    lr_mult: 0
    decay_mult: 0
  }
  param {
    lr_mult: 0
    decay_mult: 0
  }
  convolution_param {
    num_output: 64
    kernel_size: 2
    stride: 1
    weight_filler {
      type: "xavier"
    }
    bias_filler {
      type: "constant"
      value: 0
    }
  }
}
layer {
  name: "prelu3"
  type: "PReLU"
  bottom: "conv3"
  top: "conv3"
  propagate_down: true
}
layer {
  name: "conv4"
  type: "InnerProduct"
  bottom: "conv3"
  top: "conv4"
  param {
    lr_mult: 0
    decay_mult: 0
  }
  param {
    lr_mult: 0
    decay_mult: 0
  }
  inner_product_param {
    num_output: 128
    weight_filler {
      type: "xavier"
    }
    bias_filler {
      type: "constant"
      value: 0
    }
  }
}
layer {
  name: "prelu4"
  type: "PReLU"
  bottom: "conv4"
  top: "conv4"
}
layer {
  name: "conv5-1"
  type: "InnerProduct"
  bottom: "conv4"
  top: "conv5-1"
  param {
    lr_mult: 0
    decay_mult: 0
  }
  param {
    lr_mult: 0
    decay_mult: 0
  }
  inner_product_param {
    num_output: 2
    weight_filler {
      type: "xavier"
    }
    bias_filler {
      type: "constant"
      value: 0
    }
  }
}
layer {
  name: "conv5-2"
  type: "InnerProduct"
  bottom: "conv4"
  top: "conv5-2"
  param {
    lr_mult: 1
    decay_mult: 1
  }
  param {
    lr_mult: 2
    decay_mult: 1
  }
  inner_product_param {
    num_output: 4
    weight_filler {
      type: "xavier"
    }
    bias_filler {
      type: "constant"
      value: 0
    }
  }
}
layer {
  name: "prob1"
  type: "Softmax"
  bottom: "conv5-1"
  top: "prob1"
}
I0312 17:49:52.495108 68457 layer_factory.hpp:77] Creating layer input
I0312 17:49:52.495117 68457 net.cpp:84] Creating Layer input
I0312 17:49:52.495124 68457 net.cpp:380] input -> data
I0312 17:49:52.495134 68457 net.cpp:122] Setting up input
I0312 17:49:52.495141 68457 net.cpp:129] Top shape: 1 3 24 24 (1728)
I0312 17:49:52.495147 68457 net.cpp:137] Memory required for data: 6912
I0312 17:49:52.495153 68457 layer_factory.hpp:77] Creating layer conv1
I0312 17:49:52.495162 68457 net.cpp:84] Creating Layer conv1
I0312 17:49:52.495168 68457 net.cpp:406] conv1 <- data
I0312 17:49:52.495177 68457 net.cpp:380] conv1 -> conv1
I0312 17:49:52.495908 68457 net.cpp:122] Setting up conv1
I0312 17:49:52.495923 68457 net.cpp:129] Top shape: 1 28 22 22 (13552)
I0312 17:49:52.495929 68457 net.cpp:137] Memory required for data: 61120
I0312 17:49:52.495939 68457 layer_factory.hpp:77] Creating layer prelu1
I0312 17:49:52.495954 68457 net.cpp:84] Creating Layer prelu1
I0312 17:49:52.495964 68457 net.cpp:406] prelu1 <- conv1
I0312 17:49:52.495972 68457 net.cpp:367] prelu1 -> conv1 (in-place)
I0312 17:49:52.496003 68457 net.cpp:122] Setting up prelu1
I0312 17:49:52.496012 68457 net.cpp:129] Top shape: 1 28 22 22 (13552)
I0312 17:49:52.496018 68457 net.cpp:137] Memory required for data: 115328
I0312 17:49:52.496027 68457 layer_factory.hpp:77] Creating layer pool1
I0312 17:49:52.496037 68457 net.cpp:84] Creating Layer pool1
I0312 17:49:52.496042 68457 net.cpp:406] pool1 <- conv1
I0312 17:49:52.496049 68457 net.cpp:380] pool1 -> pool1
I0312 17:49:52.496058 68457 net.cpp:122] Setting up pool1
I0312 17:49:52.496065 68457 net.cpp:129] Top shape: 1 28 11 11 (3388)
I0312 17:49:52.496071 68457 net.cpp:137] Memory required for data: 128880
I0312 17:49:52.496080 68457 layer_factory.hpp:77] Creating layer conv2
I0312 17:49:52.496089 68457 net.cpp:84] Creating Layer conv2
I0312 17:49:52.496095 68457 net.cpp:406] conv2 <- pool1
I0312 17:49:52.496104 68457 net.cpp:380] conv2 -> conv2
I0312 17:49:52.497097 68457 net.cpp:122] Setting up conv2
I0312 17:49:52.497112 68457 net.cpp:129] Top shape: 1 48 9 9 (3888)
I0312 17:49:52.497118 68457 net.cpp:137] Memory required for data: 144432
I0312 17:49:52.497128 68457 layer_factory.hpp:77] Creating layer prelu2
I0312 17:49:52.497138 68457 net.cpp:84] Creating Layer prelu2
I0312 17:49:52.497143 68457 net.cpp:406] prelu2 <- conv2
I0312 17:49:52.497151 68457 net.cpp:367] prelu2 -> conv2 (in-place)
I0312 17:49:52.497170 68457 net.cpp:122] Setting up prelu2
I0312 17:49:52.497177 68457 net.cpp:129] Top shape: 1 48 9 9 (3888)
I0312 17:49:52.497182 68457 net.cpp:137] Memory required for data: 159984
I0312 17:49:52.497189 68457 layer_factory.hpp:77] Creating layer pool2
I0312 17:49:52.497197 68457 net.cpp:84] Creating Layer pool2
I0312 17:49:52.497203 68457 net.cpp:406] pool2 <- conv2
I0312 17:49:52.497210 68457 net.cpp:380] pool2 -> pool2
I0312 17:49:52.497218 68457 net.cpp:122] Setting up pool2
I0312 17:49:52.497225 68457 net.cpp:129] Top shape: 1 48 4 4 (768)
I0312 17:49:52.497231 68457 net.cpp:137] Memory required for data: 163056
I0312 17:49:52.497236 68457 layer_factory.hpp:77] Creating layer conv3
I0312 17:49:52.497246 68457 net.cpp:84] Creating Layer conv3
I0312 17:49:52.497252 68457 net.cpp:406] conv3 <- pool2
I0312 17:49:52.497261 68457 net.cpp:380] conv3 -> conv3
I0312 17:49:52.498015 68457 net.cpp:122] Setting up conv3
I0312 17:49:52.498029 68457 net.cpp:129] Top shape: 1 64 3 3 (576)
I0312 17:49:52.498035 68457 net.cpp:137] Memory required for data: 165360
I0312 17:49:52.498044 68457 layer_factory.hpp:77] Creating layer prelu3
I0312 17:49:52.498054 68457 net.cpp:84] Creating Layer prelu3
I0312 17:49:52.498060 68457 net.cpp:406] prelu3 <- conv3
I0312 17:49:52.498067 68457 net.cpp:367] prelu3 -> conv3 (in-place)
I0312 17:49:52.498081 68457 net.cpp:122] Setting up prelu3
I0312 17:49:52.498087 68457 net.cpp:129] Top shape: 1 64 3 3 (576)
I0312 17:49:52.498093 68457 net.cpp:137] Memory required for data: 167664
I0312 17:49:52.498101 68457 layer_factory.hpp:77] Creating layer conv4
I0312 17:49:52.498112 68457 net.cpp:84] Creating Layer conv4
I0312 17:49:52.498117 68457 net.cpp:406] conv4 <- conv3
I0312 17:49:52.498126 68457 net.cpp:380] conv4 -> conv4
I0312 17:49:52.498531 68457 net.cpp:122] Setting up conv4
I0312 17:49:52.498538 68457 net.cpp:129] Top shape: 1 128 (128)
I0312 17:49:52.498544 68457 net.cpp:137] Memory required for data: 168176
I0312 17:49:52.498550 68457 layer_factory.hpp:77] Creating layer prelu4
I0312 17:49:52.498558 68457 net.cpp:84] Creating Layer prelu4
I0312 17:49:52.498564 68457 net.cpp:406] prelu4 <- conv4
I0312 17:49:52.498570 68457 net.cpp:367] prelu4 -> conv4 (in-place)
I0312 17:49:52.498581 68457 net.cpp:122] Setting up prelu4
I0312 17:49:52.498587 68457 net.cpp:129] Top shape: 1 128 (128)
I0312 17:49:52.498594 68457 net.cpp:137] Memory required for data: 168688
I0312 17:49:52.498600 68457 layer_factory.hpp:77] Creating layer conv4_prelu4_0_split
I0312 17:49:52.498606 68457 net.cpp:84] Creating Layer conv4_prelu4_0_split
I0312 17:49:52.498611 68457 net.cpp:406] conv4_prelu4_0_split <- conv4
I0312 17:49:52.498620 68457 net.cpp:380] conv4_prelu4_0_split -> conv4_prelu4_0_split_0
I0312 17:49:52.498626 68457 net.cpp:380] conv4_prelu4_0_split -> conv4_prelu4_0_split_1
I0312 17:49:52.498636 68457 net.cpp:122] Setting up conv4_prelu4_0_split
I0312 17:49:52.498642 68457 net.cpp:129] Top shape: 1 128 (128)
I0312 17:49:52.498649 68457 net.cpp:129] Top shape: 1 128 (128)
I0312 17:49:52.498656 68457 net.cpp:137] Memory required for data: 169712
I0312 17:49:52.498661 68457 layer_factory.hpp:77] Creating layer conv5-1
I0312 17:49:52.498667 68457 net.cpp:84] Creating Layer conv5-1
I0312 17:49:52.498673 68457 net.cpp:406] conv5-1 <- conv4_prelu4_0_split_0
I0312 17:49:52.498682 68457 net.cpp:380] conv5-1 -> conv5-1
I0312 17:49:52.498697 68457 net.cpp:122] Setting up conv5-1
I0312 17:49:52.498704 68457 net.cpp:129] Top shape: 1 2 (2)
I0312 17:49:52.498710 68457 net.cpp:137] Memory required for data: 169720
I0312 17:49:52.498718 68457 layer_factory.hpp:77] Creating layer conv5-2
I0312 17:49:52.498724 68457 net.cpp:84] Creating Layer conv5-2
I0312 17:49:52.498729 68457 net.cpp:406] conv5-2 <- conv4_prelu4_0_split_1
I0312 17:49:52.498737 68457 net.cpp:380] conv5-2 -> conv5-2
I0312 17:49:52.498750 68457 net.cpp:122] Setting up conv5-2
I0312 17:49:52.498757 68457 net.cpp:129] Top shape: 1 4 (4)
I0312 17:49:52.498764 68457 net.cpp:137] Memory required for data: 169736
I0312 17:49:52.498769 68457 layer_factory.hpp:77] Creating layer prob1
I0312 17:49:52.498777 68457 net.cpp:84] Creating Layer prob1
I0312 17:49:52.498783 68457 net.cpp:406] prob1 <- conv5-1
I0312 17:49:52.498790 68457 net.cpp:380] prob1 -> prob1
I0312 17:49:52.498981 68457 net.cpp:122] Setting up prob1
I0312 17:49:52.498992 68457 net.cpp:129] Top shape: 1 2 (2)
I0312 17:49:52.499001 68457 net.cpp:137] Memory required for data: 169744
I0312 17:49:52.499007 68457 net.cpp:200] prob1 does not need backward computation.
I0312 17:49:52.499017 68457 net.cpp:200] conv5-2 does not need backward computation.
I0312 17:49:52.499025 68457 net.cpp:200] conv5-1 does not need backward computation.
I0312 17:49:52.499032 68457 net.cpp:200] conv4_prelu4_0_split does not need backward computation.
…
I0312 17:49:52.500275 68457 upgrade_proto.cpp:69] Attempting to upgrade input file specified using deprecated input fields: /app/huang/mtcnn-DU/model/det3.prototxt
I0312 17:49:52.500284 68457 upgrade_proto.cpp:72] Successfully upgraded file specified using deprecated input fields.
W0312 17:49:52.500290 68457 upgrade_proto.cpp:74] Note that future Caffe releases will only support input layers and not input fields.
I0312 17:49:52.500401 68457 net.cpp:51] Initializing net from parameters: 
name: "ONet"
state {
  phase: TEST
  level: 0
}
layer {
  name: "input"
  type: "Input"
  top: "data"
  input_param {
    shape {
      dim: 1
      dim: 3
      dim: 48
      dim: 48
    }
  }
}
layer {
  name: "conv1"
  type: "Convolution"
  bottom: "data"
  top: "conv1"
  param {
    lr_mult: 1
    decay_mult: 1
  }
  param {
    lr_mult: 2
    decay_mult: 1
  }
  convolution_param {
    num_output: 32
    kernel_size: 3
    stride: 1
    weight_filler {
      type: "xavier"
    }
    bias_filler {
      type: "constant"
      value: 0
    }
  }
}
layer {
  name: "prelu1"
  type: "PReLU"
  bottom: "conv1"
  top: "conv1"
}
layer {
  name: "pool1"
  type: "Pooling"
  bottom: "conv1"
  top: "pool1"
  pooling_param {
    pool: MAX
    kernel_size: 3
    stride: 2
  }
}
layer {
  name: "conv2"
  type: "Convolution"
  bottom: "pool1"
  top: "conv2"
  param {
    lr_mult: 1
    decay_mult: 1
  }
  param {
    lr_mult: 2
    decay_mult: 1
  }
  convolution_param {
    num_output: 64
    kernel_size: 3
    stride: 1
    weight_filler {
      type: "xavier"
    }
    bias_filler {
      type: "constant"
      value: 0
    }
  }
}
layer {
  name: "prelu2"
  type: "PReLU"
  bottom: "conv2"
  top: "conv2"
}
layer {
  name: "pool2"
  type: "Pooling"
  bottom: "conv2"
  top: "pool2"
  pooling_param {
    pool: MAX
    kernel_size: 3
    stride: 2
  }
}
layer {
  name: "conv3"
  type: "Convolution"
  bottom: "pool2"
  top: "conv3"
  param {
    lr_mult: 1
    decay_mult: 1
  }
  param {
    lr_mult: 2
    decay_mult: 1
  }
  convolution_param {
    num_output: 64
    kernel_size: 3
    weight_filler {
      type: "xavier"
    }
    bias_filler {
      type: "constant"
      value: 0
    }
  }
}
layer {
  name: "prelu3"
  type: "PReLU"
  bottom: "conv3"
  top: "conv3"
}
layer {
  name: "pool3"
  type: "Pooling"
  bottom: "conv3"
  top: "pool3"
  pooling_param {
    pool: MAX
    kernel_size: 2
    stride: 2
  }
}
layer {
  name: "conv4"
  type: "Convolution"
  bottom: "pool3"
  top: "conv4"
  param {
    lr_mult: 1
    decay_mult: 1
  }
  param {
    lr_mult: 2
    decay_mult: 1
  }
  convolution_param {
    num_output: 128
    kernel_size: 2
    weight_filler {
      type: "xavier"
    }
    bias_filler {
      type: "constant"
      value: 0
    }
  }
}
layer {
  name: "prelu4"
  type: "PReLU"
  bottom: "conv4"
  top: "conv4"
}
layer {
  name: "conv5"
  type: "InnerProduct"
  bottom: "conv4"
  top: "conv5"
  param {
    lr_mult: 1
    decay_mult: 1
  }
  param {
    lr_mult: 2
    decay_mult: 1
  }
  inner_product_param {
    num_output: 256
    weight_filler {
      type: "xavier"
    }
    bias_filler {
      type: "constant"
      value: 0
    }
  }
}
layer {
  name: "drop5"
  type: "Dropout"
  bottom: "conv5"
  top: "conv5"
  dropout_param {
    dropout_ratio: 0.25
  }
}
layer {
  name: "prelu5"
  type: "PReLU"
  bottom: "conv5"
  top: "conv5"
}
layer {
  name: "conv6-1"
  type: "InnerProduct"
  bottom: "conv5"
  top: "conv6-1"
  param {
    lr_mult: 1
    decay_mult: 1
  }
  param {
    lr_mult: 2
    decay_mult: 1
  }
  inner_product_param {
    num_output: 2
    weight_filler {
      type: "xavier"
    }
    bias_filler {
      type: "constant"
      value: 0
    }
  }
}
layer {
  name: "conv6-2"
  type: "InnerProduct"
  bottom: "conv5"
  top: "conv6-2"
  param {
    lr_mult: 1
    decay_mult: 1
  }
  param {
    lr_mult: 2
    decay_mult: 1
  }
  inner_product_param {
    num_output: 4
    weight_filler {
      type: "xavier"
    }
    bias_filler {
      type: "constant"
      value: 0
    }
  }
}
layer {
  name: "conv6-3"
  type: "InnerProduct"
  bottom: "conv5"
  top: "conv6-3"
  param {
    lr_mult: 1
    decay_mult: 1
  }
  param {
    lr_mult: 2
    decay_mult: 1
  }
  inner_product_param {
    num_output: 10
    weight_filler {
      type: "xavier"
    }
    bias_filler {
      type: "constant"
      value: 0
    }
  }
}
layer {
  name: "prob1"
  type: "Softmax"
  bottom: "conv6-1"
  top: "prob1"
}
I0312 17:49:52.500454 68457 layer_factory.hpp:77] Creating layer input
I0312 17:49:52.500463 68457 net.cpp:84] Creating Layer input
I0312 17:49:52.500473 68457 net.cpp:380] input -> data
I0312 17:49:52.500483 68457 net.cpp:122] Setting up input
I0312 17:49:52.500490 68457 net.cpp:129] Top shape: 1 3 48 48 (6912)
I0312 17:49:52.500495 68457 net.cpp:137] Memory required for data: 27648
I0312 17:49:52.500501 68457 layer_factory.hpp:77] Creating layer conv1
I0312 17:49:52.500510 68457 net.cpp:84] Creating Layer conv1
I0312 17:49:52.500517 68457 net.cpp:406] conv1 <- data
I0312 17:49:52.500524 68457 net.cpp:380] conv1 -> conv1
I0312 17:49:52.501229 68457 net.cpp:122] Setting up conv1
I0312 17:49:52.501242 68457 net.cpp:129] Top shape: 1 32 46 46 (67712)
I0312 17:49:52.501250 68457 net.cpp:137] Memory required for data: 298496
I0312 17:49:52.501260 68457 layer_factory.hpp:77] Creating layer prelu1
I0312 17:49:52.501267 68457 net.cpp:84] Creating Layer prelu1
I0312 17:49:52.501274 68457 net.cpp:406] prelu1 <- conv1
I0312 17:49:52.501281 68457 net.cpp:367] prelu1 -> conv1 (in-place)
I0312 17:49:52.501327 68457 net.cpp:122] Setting up prelu1
I0312 17:49:52.501334 68457 net.cpp:129] Top shape: 1 32 46 46 (67712)
I0312 17:49:52.501340 68457 net.cpp:137] Memory required for data: 569344
I0312 17:49:52.501348 68457 layer_factory.hpp:77] Creating layer pool1
I0312 17:49:52.501355 68457 net.cpp:84] Creating Layer pool1
I0312 17:49:52.501361 68457 net.cpp:406] pool1 <- conv1
I0312 17:49:52.501368 68457 net.cpp:380] pool1 -> pool1
I0312 17:49:52.501377 68457 net.cpp:122] Setting up pool1
I0312 17:49:52.501384 68457 net.cpp:129] Top shape: 1 32 23 23 (16928)
I0312 17:49:52.501389 68457 net.cpp:137] Memory required for data: 637056
I0312 17:49:52.501395 68457 layer_factory.hpp:77] Creating layer conv2
I0312 17:49:52.501405 68457 net.cpp:84] Creating Layer conv2
I0312 17:49:52.501410 68457 net.cpp:406] conv2 <- pool1
I0312 17:49:52.501417 68457 net.cpp:380] conv2 -> conv2
I0312 17:49:52.502153 68457 net.cpp:122] Setting up conv2
I0312 17:49:52.502167 68457 net.cpp:129] Top shape: 1 64 21 21 (28224)
I0312 17:49:52.502173 68457 net.cpp:137] Memory required for data: 749952
I0312 17:49:52.502183 68457 layer_factory.hpp:77] Creating layer prelu2
I0312 17:49:52.502192 68457 net.cpp:84] Creating Layer prelu2
I0312 17:49:52.502199 68457 net.cpp:406] prelu2 <- conv2
I0312 17:49:52.502207 68457 net.cpp:367] prelu2 -> conv2 (in-place)
I0312 17:49:52.502259 68457 net.cpp:122] Setting up prelu2
I0312 17:49:52.502265 68457 net.cpp:129] Top shape: 1 64 21 21 (28224)
I0312 17:49:52.502271 68457 net.cpp:137] Memory required for data: 862848
I0312 17:49:52.502277 68457 layer_factory.hpp:77] Creating layer pool2
I0312 17:49:52.502285 68457 net.cpp:84] Creating Layer pool2
I0312 17:49:52.502292 68457 net.cpp:406] pool2 <- conv2
I0312 17:49:52.502298 68457 net.cpp:380] pool2 -> pool2
I0312 17:49:52.502307 68457 net.cpp:122] Setting up pool2
I0312 17:49:52.502315 68457 net.cpp:129] Top shape: 1 64 10 10 (6400)
I0312 17:49:52.502321 68457 net.cpp:137] Memory required for data: 888448
I0312 17:49:52.502326 68457 layer_factory.hpp:77] Creating layer conv3
I0312 17:49:52.502336 68457 net.cpp:84] Creating Layer conv3
I0312 17:49:52.502341 68457 net.cpp:406] conv3 <- pool2
I0312 17:49:52.502349 68457 net.cpp:380] conv3 -> conv3
I0312 17:49:52.503227 68457 net.cpp:122] Setting up conv3
I0312 17:49:52.503242 68457 net.cpp:129] Top shape: 1 64 8 8 (4096)
I0312 17:49:52.503249 68457 net.cpp:137] Memory required for data: 904832
I0312 17:49:52.503257 68457 layer_factory.hpp:77] Creating layer prelu3
I0312 17:49:52.503268 68457 net.cpp:84] Creating Layer prelu3
I0312 17:49:52.503274 68457 net.cpp:406] prelu3 <- conv3
I0312 17:49:52.503283 68457 net.cpp:367] prelu3 -> conv3 (in-place)
I0312 17:49:52.503300 68457 net.cpp:122] Setting up prelu3
I0312 17:49:52.503307 68457 net.cpp:129] Top shape: 1 64 8 8 (4096)
I0312 17:49:52.503314 68457 net.cpp:137] Memory required for data: 921216
I0312 17:49:52.503321 68457 layer_factory.hpp:77] Creating layer pool3
I0312 17:49:52.503329 68457 net.cpp:84] Creating Layer pool3
I0312 17:49:52.503334 68457 net.cpp:406] pool3 <- conv3
I0312 17:49:52.503345 68457 net.cpp:380] pool3 -> pool3
I0312 17:49:52.503353 68457 net.cpp:122] Setting up pool3
I0312 17:49:52.503361 68457 net.cpp:129] Top shape: 1 64 4 4 (1024)
I0312 17:49:52.503366 68457 net.cpp:137] Memory required for data: 925312
I0312 17:49:52.503372 68457 layer_factory.hpp:77] Creating layer conv4
I0312 17:49:52.503381 68457 net.cpp:84] Creating Layer conv4
I0312 17:49:52.503386 68457 net.cpp:406] conv4 <- pool3
I0312 17:49:52.503393 68457 net.cpp:380] conv4 -> conv4
I0312 17:49:52.504199 68457 net.cpp:122] Setting up conv4
I0312 17:49:52.504212 68457 net.cpp:129] Top shape: 1 128 3 3 (1152)
I0312 17:49:52.504218 68457 net.cpp:137] Memory required for data: 929920
I0312 17:49:52.504226 68457 layer_factory.hpp:77] Creating layer prelu4
I0312 17:49:52.504235 68457 net.cpp:84] Creating Layer prelu4
I0312 17:49:52.504241 68457 net.cpp:406] prelu4 <- conv4
I0312 17:49:52.504248 68457 net.cpp:367] prelu4 -> conv4 (in-place)
I0312 17:49:52.504261 68457 net.cpp:122] Setting up prelu4
I0312 17:49:52.504267 68457 net.cpp:129] Top shape: 1 128 3 3 (1152)
I0312 17:49:52.504272 68457 net.cpp:137] Memory required for data: 934528
I0312 17:49:52.504279 68457 layer_factory.hpp:77] Creating layer conv5
I0312 17:49:52.504287 68457 net.cpp:84] Creating Layer conv5
I0312 17:49:52.504292 68457 net.cpp:406] conv5 <- conv4
I0312 17:49:52.504299 68457 net.cpp:380] conv5 -> conv5
I0312 17:49:52.505933 68457 net.cpp:122] Setting up conv5
I0312 17:49:52.505944 68457 net.cpp:129] Top shape: 1 256 (256)
I0312 17:49:52.505950 68457 net.cpp:137] Memory required for data: 935552
I0312 17:49:52.505959 68457 layer_factory.hpp:77] Creating layer drop5
I0312 17:49:52.505969 68457 net.cpp:84] Creating Layer drop5
I0312 17:49:52.505975 68457 net.cpp:406] drop5 <- conv5
I0312 17:49:52.505981 68457 net.cpp:367] drop5 -> conv5 (in-place)
I0312 17:49:52.505993 68457 net.cpp:122] Setting up drop5
I0312 17:49:52.506000 68457 net.cpp:129] Top shape: 1 256 (256)
I0312 17:49:52.506006 68457 net.cpp:137] Memory required for data: 936576
I0312 17:49:52.506011 68457 layer_factory.hpp:77] Creating layer prelu5
I0312 17:49:52.506018 68457 net.cpp:84] Creating Layer prelu5
I0312 17:49:52.506024 68457 net.cpp:406] prelu5 <- conv5
I0312 17:49:52.506032 68457 net.cpp:367] prelu5 -> conv5 (in-place)
I0312 17:49:52.506043 68457 net.cpp:122] Setting up prelu5
I0312 17:49:52.506049 68457 net.cpp:129] Top shape: 1 256 (256)
I0312 17:49:52.506055 68457 net.cpp:137] Memory required for data: 937600
I0312 17:49:52.506062 68457 layer_factory.hpp:77] Creating layer conv5_prelu5_0_split
I0312 17:49:52.506068 68457 net.cpp:84] Creating Layer conv5_prelu5_0_split
I0312 17:49:52.506075 68457 net.cpp:406] conv5_prelu5_0_split <- conv5
I0312 17:49:52.506083 68457 net.cpp:380] conv5_prelu5_0_split -> conv5_prelu5_0_split_0
I0312 17:49:52.506090 68457 net.cpp:380] conv5_prelu5_0_split -> conv5_prelu5_0_split_1
I0312 17:49:52.506098 68457 net.cpp:380] conv5_prelu5_0_split -> conv5_prelu5_0_split_2
I0312 17:49:52.506105 68457 net.cpp:122] Setting up conv5_prelu5_0_split
I0312 17:49:52.506112 68457 net.cpp:129] Top shape: 1 256 (256)
I0312 17:49:52.506119 68457 net.cpp:129] Top shape: 1 256 (256)
I0312 17:49:52.506124 68457 net.cpp:129] Top shape: 1 256 (256)
I0312 17:49:52.506130 68457 net.cpp:137] Memory required for data: 940672
I0312 17:49:52.506136 68457 layer_factory.hpp:77] Creating layer conv6-1
I0312 17:49:52.506145 68457 net.cpp:84] Creating Layer conv6-1
I0312 17:49:52.506150 68457 net.cpp:406] conv6-1 <- conv5_prelu5_0_split_0
I0312 17:49:52.506158 68457 net.cpp:380] conv6-1 -> conv6-1
I0312 17:49:52.506172 68457 net.cpp:122] Setting up conv6-1
I0312 17:49:52.506178 68457 net.cpp:129] Top shape: 1 2 (2)
I0312 17:49:52.506184 68457 net.cpp:137] Memory required for data: 940680
I0312 17:49:52.506196 68457 layer_factory.hpp:77] Creating layer conv6-2
I0312 17:49:52.506201 68457 net.cpp:84] Creating Layer conv6-2
I0312 17:49:52.506207 68457 net.cpp:406] conv6-2 <- conv5_prelu5_0_split_1
I0312 17:49:52.506214 68457 net.cpp:380] conv6-2 -> conv6-2
I0312 17:49:52.506233 68457 net.cpp:122] Setting up conv6-2
I0312 17:49:52.506240 68457 net.cpp:129] Top shape: 1 4 (4)
I0312 17:49:52.506247 68457 net.cpp:137] Memory required for data: 940696
I0312 17:49:52.506253 68457 layer_factory.hpp:77] Creating layer conv6-3
I0312 17:49:52.506260 68457 net.cpp:84] Creating Layer conv6-3
I0312 17:49:52.506266 68457 net.cpp:406] conv6-3 <- conv5_prelu5_0_split_2
I0312 17:49:52.506273 68457 net.cpp:380] conv6-3 -> conv6-3
I0312 17:49:52.506295 68457 net.cpp:122] Setting up conv6-3
I0312 17:49:52.506302 68457 net.cpp:129] Top shape: 1 10 (10)
I0312 17:49:52.506309 68457 net.cpp:137] Memory required for data: 940736
I0312 17:49:52.506314 68457 layer_factory.hpp:77] Creating layer prob1
I0312 17:49:52.506321 68457 net.cpp:84] Creating Layer prob1
I0312 17:49:52.506327 68457 net.cpp:406] prob1 <- conv6-1
I0312 17:49:52.506335 68457 net.cpp:380] prob1 -> prob1
I0312 17:49:52.506734 68457 net.cpp:122] Setting up prob1
I0312 17:49:52.506747 68457 net.cpp:129] Top shape: 1 2 (2)
I0312 17:49:52.506753 68457 net.cpp:137] Memory required for data: 940744
I0312 17:49:52.506759 68457 net.cpp:200] prob1 does not need backward computation.
I0312 17:49:52.506765 68457 net.cpp:200] conv6-3 does not need backward computation.
I0312 17:49:52.506772 68457 net.cpp:200] conv6-2 does not need backward computation.
I0312 17:49:52.506778 68457 net.cpp:200] conv6-1 does not need backward computation.
…
